Logging to /data/scratch/idanshen/pomdp-baselines/gridworld/MiniGrid/TigerDoorEnv/Markovian_sacd/alpha-0.1/gamma-0.9/10-12:15-21:39.45 
preload cost 5.50s 
--cfg=/data/scratch/idanshen/pomdp-baselines/configs/gridworld/tiger_door/mlp.yml

--algo=sacd





--nooracle
--nodebug
 
pid 72204 improbablex009.csail.mit.edu 
obs_dim (30,) act_dim 4 
<class 'policies.models.policy_mlp.ModelFreeOffPolicy_MLP'> markov 
ModelFreeOffPolicy_MLP(
  (qf1): FlattenMlp(
    (fc0): Linear(in_features=30, out_features=128, bias=True)
    (fc1): Linear(in_features=128, out_features=128, bias=True)
    (last_fc): Linear(in_features=128, out_features=4, bias=True)
  )
  (qf2): FlattenMlp(
    (fc0): Linear(in_features=30, out_features=128, bias=True)
    (fc1): Linear(in_features=128, out_features=128, bias=True)
    (last_fc): Linear(in_features=128, out_features=4, bias=True)
  )
  (qf1_target): FlattenMlp(
    (fc0): Linear(in_features=30, out_features=128, bias=True)
    (fc1): Linear(in_features=128, out_features=128, bias=True)
    (last_fc): Linear(in_features=128, out_features=4, bias=True)
  )
  (qf2_target): FlattenMlp(
    (fc0): Linear(in_features=30, out_features=128, bias=True)
    (fc1): Linear(in_features=128, out_features=128, bias=True)
    (last_fc): Linear(in_features=128, out_features=4, bias=True)
  )
  (policy): CategoricalPolicy(
    (fc0): Linear(in_features=30, out_features=128, bias=True)
    (fc1): Linear(in_features=128, out_features=128, bias=True)
    (last_fc): Linear(in_features=128, out_features=4, bias=True)
  )
  (policy_target): CategoricalPolicy(
    (fc0): Linear(in_features=30, out_features=128, bias=True)
    (fc1): Linear(in_features=128, out_features=128, bias=True)
    (last_fc): Linear(in_features=128, out_features=4, bias=True)
  )
) 
*** total rollouts 1280 total env steps 128000 
total RAM usage: 3.65 GB
 
Collecting initial pool of data.. 
Done! env steps 3044 rollouts 45 
env steps 4893 
---2022-10-12 15:21:58.643533 EDT----
| rl_loss/alpha          | 0.1      |
| rl_loss/policy_entropy | 0.918    |
| rl_loss/policy_loss    | 4.09     |
| rl_loss/qf1_loss       | 39.3     |
…
